models/job_recommendation_model.pth (torch, 429938 bytes, 5 tensors)

fc.0.weight f4 [128, 768]
000000 9a d2 1f 3b 70 18 78 bd b0 39 89 3b d5 00 42 3d
       0.0024387003 -0.06057018 0.004187785 0.047364075
000010 10 e8 98 3d ea b9 22 bc 88 51 d5 3c f8 a5 e9 3b
       0.074661374 -0.009932021 0.026039854 0.0071303807
000020 7c 01 1d bc a0 10 39 bd 07 e1 31 bc b6 3a e2 bc
       -0.009582873 -0.04518187 -0.010856873 -0.027615886
000030 08 02 ae 3c c8 eb 10 3b b7 d6 7f 3d a8 2f 20 bb
       0.021241203 0.0022113193 0.062460627 -0.0024442468
000040 1b 49 83 bd 18 24 8e bd a0 ec 1f 3b 86 f4 7a bc
       -0.06410428 -0.06940478 0.0024402514 -0.015317088
000050 be 34 89 bd 2a ab 5f bd d9 2b 7a 3d 24 28 87 bc
       -0.06699513 -0.054606594 0.061076973 -0.016498633
000060 04 5e 8d 3d 1c 84 6d bd e7 b5 92 3d 7f d5 1b bc
       0.06902698 -0.057987317 0.07163601 -0.009511351
000070 30 5b 35 bc 73 2c a8 bd 1f 19 f4 3b 50 d7 43 3c
       -0.011069104 -0.08211603 0.0074492837 0.01195319
000080 cb b0 88 3c 2c 0e 3e 3d a4 27 b1 3c 33 d4 9e bb
       0.016685864 0.046400234 0.021625347 -0.0048470735
000090 5c ed 90 3c 9b bc a8 3d f3 df e9 3c ca 62 2f 3d
       0.017691307 0.08239099 0.02854917 0.042818822
0000a0 7e 00 46 bc 42 b7 d1 bc c9 40 dd 3c 19 c9 5e bd
       -0.012085078 -0.02560008 0.027008431 -0.054391
0000b0 09 3a da bc f3 f8 45 bc 83 e6 87 3d 1e 52 ce 3c
       -0.026639001 -0.01208328 0.066357635 0.02518564
0000c0 f2 a8 46 3d ef b1 16 bc e4 77 78 bd f1 89 65 bd
       0.048500963 -0.009197696 -0.06066121 -0.056039754
0000d0 7d ca bf bb 3e 9e 81 bd 1c 0f 91 3d 76 9d 3e bc
       -0.005852996 -0.063290104 0.0708296 -0.011634221
0000e0 88 f5 a1 3c 3f 0f 95 3d 1a 95 8a bd 70 26 99 bd
       0.019770399 0.072782986 -0.0676672 -0.074780345
0000f0 3d 62 4b bd 8a d3 4a bd cb 50 16 3b 8b 3f 80 3c
       -0.049654234 -0.049518146 0.002293634 0.0156553
000100 9e ce 8e 3d 1a c1 b3 bc 98 a5 31 bd 39 7a d1 ba
       0.06973003 -0.021942664 -0.043370813 -0.001598186
000110 cc c6 70 3c 7f 51 e7 bc d3 0f 2f bd 31 d3 11 bd
       0.014695834 -0.028237103 -0.0427397 -0.0356018
000120 ea 23 36 bd 2a 06 1e 3d fb 55 d9 bb 80 d6 14 3b
       -0.044467844 0.038580097 -0.006632564 0.002271086
000130 1d a7 19 3d 04 cf 7f 3d 76 0d 1a 3d d9 89 32 bd
       0.037512887 0.062453285 0.037610494 -0.043588493
000140 17 19 de 3c 1c 11 c9 bc f0 6f bb bc e1 08 1a bb
       0.027111573 -0.024544291 -0.022880524 -0.0023503827
000150 ee 68 93 bd 59 a6 28 bd f0 a7 63 bd d6 f7 6a 3c
       -0.07197748 -0.041174266 -0.05558008 0.014341315
000160 4b 02 01 bd a6 7e 2e bd 7c e1 0d 3d 8a 0c f0 3c
       -0.031496327 -0.04260125 0.034638867 0.029302854
000170 9e 34 96 bc ca e5 25 3d 82 af c7 3c 5c 0a 23 3d
       -0.018335637 0.040502347 0.02437568 0.0398048
000180 69 53 57 bd 30 f0 88 bc 95 7e f6 3c 67 3a 04 3d
       -0.05256978 -0.016716093 0.030089656 0.03228226
000190 4c 2b 23 bd f1 5a 67 bd cd a5 68 3d 10 dd 9e 3d
       -0.039836213 -0.056483213 0.056798745 0.07757008
0001a0 30 e6 d3 bc dd 9c 3d bc 3f 42 5d 3c ae 6b 9b 3d
       -0.025866598 -0.011573044 0.013504564 0.07588898
0001b0 05 1c 3d bb 74 b4 af 3d 36 30 88 bd 16 69 1f 3d
       -0.0028855812 0.085793406 -0.066498205 0.038918577
0001c0 2d 88 b8 bb b0 8b c6 3b 89 c9 b6 38 b4 70 96 bc
       -0.005631468 0.0060591325 8.715975e-05 -0.018364288
0001d0 ab c7 fc ba 2e 95 e1 3c 9e 0b 86 3d b5 22 8c 3d
       -0.001928558 0.027536955 0.065451846 0.06842557
0001e0 9a c1 00 bd c5 0c 19 3d 18 d4 43 bd 3e 84 05 3c
       -0.031434633 0.037365694 -0.04780969 0.008149205
0001f0 6f 41 55 bd 18 b7 43 bd 04 5c a5 bc fb 0b 96 bb
       -0.052064355 -0.047782034 -0.020185478 -0.004579065
000200 26 ec 70 bc 40 f9 84 3b 74 01 d3 3c ba d6 75 3c
       -0.01470474 0.004058033 0.025757529 0.015004808
000210 6b 81 0d 3c e7 45 58 3d d8 97 24 bd 8e 38 19 3c
       0.008636813 0.05280104 -0.040183872 0.009351863
000220 92 51 1c bb 00 a7 58 3c fd 97 89 3d a5 25 e2 3b
       -0.002385233 0.01322341 0.067184426 0.0069014602
000230 10 24 62 bd 1a 63 f6 3c b4 4d f9 3c 77 b9 04 3c
       -0.055210173 0.030076552 0.03043256 0.008100859
000240 9c d5 43 bd 56 09 96 3c aa dc 72 bd a1 0e 19 3c
       -0.047811136 0.018314999 -0.059292473 0.009341867
000250 45 e3 64 bc 40 85 b1 3a 2c fd 32 bd 4c aa ae 3c
       -0.013970201 0.001354374 -0.043698475 0.021321438
000260 d8 9c 51 3c 23 e0 9d bd 26 6a 03 3c 92 94 5c bb
       0.012793742 -0.07708766 0.008020913 -0.003365789
000270 5f 49 1c 3d 7e ff d9 3b 9d 03 f5 bb 43 10 ba 3c
       0.03815591 0.0066527715 -0.0074772374 0.022712832
000280 d8 94 94 bb d0 45 28 bd 00 15 0b 3c a5 f1 69 3d
       -0.004534345 -0.041082203 0.0084888935 0.057115216
000290 25 8d 4a bb f1 1d 7b 3b dc 7c 9e 3c 5e 6e 18 3d
       -0.0030906883 0.0038317407 0.019346647 0.03721463
0002a0 3a 02 81 bc 09 48 67 3d 6c b8 a3 3c 01 0a 80 bc
       -0.015748132 0.056465182 0.0199854 -0.01562977
0002b0 61 f1 56 bd fa 6c ee 3c 63 19 50 3d 29 0a b4 bc
       -0.05247629 0.029104698 0.05080546 -0.021977501
0002c0 45 a9 ae 3c 12 2a 92 3d 0a 9b 37 bd 91 dd 90 3a
       0.021320948 0.071369305 -0.04482559 0.001105236
0002d0 e4 e6 df bc b9 d3 04 3c 36 da ce 3b 83 cb 04 3d
       -0.027331777 0.008107119 0.006312634 0.032420646
0002e0 ff 77 07 3c 09 8a 59 3a 45 67 13 bd 29 9b f6 bc
       0.008268355 0.0008298462 -0.035987157 -0.030103283
0002f0 0e f2 0c bd 01 e5 18 3d b9 a1 96 bd 38 45 89 bd
       -0.03441053 0.03732777 -0.07355065 -0.067026556
000300 ed 65 97 bc 8d 12 fe 3c 59 58 67 3c a3 53 36 bd
       -0.01848122 0.031014705 0.014120185 -0.044513356
000310 0c c9 01 3d 44 2c 1d bc 8e 4c a5 bb 42 34 85 3d
       0.031685874 -0.009593073 -0.0050445264 0.06504108
000320 12 be 23 3d f2 9f 8b bd 1b 11 d0 bc 34 4a 12 bd
       0.039976187 -0.068176165 -0.025398782 -0.035715297
000330 1d 42 f8 3b c1 d6 e9 bc 7d 27 a2 bd 47 d1 6e 3d
       0.0075762407 -0.028544785 -0.07917688 0.05830505
000340 df b6 87 bd 85 df 69 bd f5 51 98 3d 0d 1e c8 bc
       -0.06626677 -0.05709793 0.07437507 -0.024428392
000350 c9 d9 66 3d f4 f2 35 3d 1f 61 f0 3c 26 e1 63 bd
       0.05636004 0.04442115 0.029343186 -0.05563464
000360 3a 4d 7d 3a 9f 87 b6 3c ad dd 66 bd ed 63 e3 bc
       0.0009662692 0.022281466 -0.05636375 -0.02775761
000370 aa 4a 04 bd 17 bf fc 3c 44 36 95 bd e8 5c d5 3b
       -0.032297768 0.030852837 -0.07285741 0.0065113194
000380 8b c6 12 bd 07 03 e3 3c 05 ae 5d 3d ce b7 19 3b
       -0.035833877 0.027711404 0.054121036 0.0023455503
000390 21 c7 98 3c 1a f2 9a bd f2 c3 09 bc 78 19 c0 3c
       0.01864964 -0.075657085 -0.008408533 0.023449644
0003a0 9c 75 4c 3d a2 58 9b bc 14 86 60 bd 3d 94 05 3d
       0.04991685 -0.018963162 -0.054815367 0.032612074
0003b0 89 3f 66 3c a4 7b 44 3b 80 17 82 bd c5 06 94 3d
       0.014053234 0.0029980922 -0.063521385 0.07227854
0003c0 2d 7b d3 bc 33 bb af bd 8a 6a 45 bd d4 99 2c bd
       -0.02581557 -0.08580627 -0.048197307 -0.04213889
0003d0 53 72 15 bd 96 b1 3b 3d 91 c2 8c b9 58 89 81 3d
       -0.03648598 0.045823656 -0.00026847844 0.06325024
0003e0 fa ea 12 3d 66 fc 03 bd 18 a0 f9 ba a3 6c 1a 3d
       0.035868622 -0.032223128 -0.0019044904 0.03770126
0003f0 8c 47 c9 bc d1 6e fa bc 07 da 99 bc bd 95 bc 3c
       -0.024570249 -0.03057042 -0.018780721 0.02302062

fc.0.bias f4 [128]
000000 cf 11 21 3c ea 48 0e 3c 68 eb b9 3b 93 da ef bc
       0.009830906 0.008684376 0.0056738146 -0.029279029
000010 cf 86 85 3c e9 7b 8d bc 68 4c 87 bc 88 a4 6e bc
       0.016299633 -0.017270999 -0.016515926 -0.0145655945
000020 cd a4 ae 3c b8 46 95 bb c1 86 42 3c 6b 67 b8 3c
       0.021318818 -0.0045555495 0.011872948 0.022510251
000030 84 44 2d 3e 5c 28 e1 3c 3e b8 e5 bc 30 9d 10 bc
       0.16920668 0.027485065 -0.028041955 -0.008826539
000040 c8 c1 58 3d 14 83 b7 3c 86 bd 51 3d db 8d 8b 3b
       0.05291918 0.02240137 0.051206134 0.004258854
000050 52 35 a6 3b 21 5e bf bc 1c 85 8e bc fb 35 c4 3b
       0.0050722742 -0.023360314 -0.017397456 0.0059878803
000060 df 10 17 bd 1e fe d0 3a 84 34 13 3c f5 16 65 bb
       -0.036881324 0.0015944873 0.008984689 -0.003495631
000070 14 b3 ab 3c 17 a3 05 3d d1 8c 2a 3c a4 a3 b0 bc
       0.020959415 0.032626238 0.01040955 -0.021562405
000080 7f 5f ac 3a 57 9c d5 3b a4 ac 02 bd 4e 47 82 3d
       0.0013151019 0.0065188813 -0.031902924 0.063612565
000090 95 25 78 3c 60 cc 8c bc 2b ed 03 3a 41 3e 30 bc
       0.015145679 -0.017187297 0.0005032594 -0.01075703
0000a0 fb c5 8e 3b dc 94 80 3b fc 90 2b 3c 98 71 84 3c
       0.004357097 0.0039239954 0.010471579 0.016167447
0000b0 6a 54 16 bd 08 7a 9c 3c 7a 85 18 bc ca 84 0c bd
       -0.036701597 0.019101158 -0.009309167 -0.034306325
0000c0 f1 f4 78 3c 12 3a e4 bb ae 70 06 bd 0f 86 ed 3a
       0.015195117 -0.0069649303 -0.032822303 0.0018121618
0000d0 e8 b8 6b 3d 72 56 61 3d 5f c7 22 bd 43 64 82 3b
       0.057549387 0.05501408 -0.039740916 0.0039792373
0000e0 d7 aa ec 3c 51 44 a2 bb f5 1e 24 bb e3 8a de 3c
       0.028890057 -0.0049519916 -0.0025042866 0.027165836
0000f0 18 59 83 3b ce e4 81 3d 54 21 87 3b 83 2a dd bc
       0.0040084235 0.06342469 0.004123846 -0.02699781
000100 79 36 c7 bc b1 a8 3e 3d b7 e3 49 3d 57 5e 1f bd
       -0.024317967 0.046547595 0.04928943 -0.03890833
000110 b7 ed 0e 3c 6f c2 51 3b 1b 68 29 bb ea a1 7a 3c
       0.008723668 0.003200676 -0.0025849405 0.015297392
000120 be 08 b6 3b 14 e9 96 3c 74 1d 74 3c 70 65 e5 3c
       0.0055552414 0.018421687 0.0148996 0.02800247
000130 d6 a3 99 bc 9c a0 6e 3d 64 ec 67 3d d3 28 39 3c
       -0.01875488 0.058258638 0.056621924 0.011301237
000140 7a dd eb bc 96 58 27 bc 9f a7 1c bc a8 c0 85 3c
       -0.028792132 -0.010213992 -0.009561448 0.016327217
000150 0d 11 84 bc d3 e0 ec 3c 13 e8 6a bc 0a 4e e4 3b
       -0.016121412 0.028915798 -0.014337557 0.006967311
000160 69 1c ae 3b 85 53 44 3d 2f 02 52 bc 8f 9f 66 3c
       0.0053134453 0.047931213 -0.012817903 0.014076128
000170 50 cc 7f 3b 3c d0 bd bc 59 35 cd bc 71 26 2f 3d
       0.0039031692 -0.023170583 -0.025049852 0.04276127
000180 b9 6a 1f 3c 50 c5 93 bb 8c b5 21 bd b4 6c 62 3d
       0.0097300345 -0.0045096055 -0.039479777 0.05527945
000190 58 ba 03 bb 3f ba 29 bb 99 b8 11 bd ef ee 43 3d
       -0.0020100083 -0.0025898365 -0.035576437 0.047835287
0001a0 8f 04 d2 bb b6 f4 f2 3b 60 84 d7 3b 69 9b 3e 3d
       -0.006409235 0.0074144257 0.0065770596 0.04653493
0001b0 8c 11 af bb 2a 06 93 3c 8d b0 7e 3c c7 f6 85 3d
       -0.005342668 0.017947275 0.015545023 0.0654121
0001c0 dc 99 a8 bc 04 de 62 3d 3c 89 04 bd 44 a2 83 3c
       -0.020581178 0.05538751 -0.03235744 0.016068585
0001d0 d8 ba d4 ba e9 b1 a5 3c dc 33 ea bc 58 41 98 bc
       -0.001623 0.020226436 -0.028589182 -0.018585846
0001e0 99 00 d1 bc 00 4a b5 3c 4e 7a d1 3c 05 c3 32 3d
       -0.02551298 0.022130013 0.025571015 0.043643016
0001f0 ed 83 4b bc 08 4a 18 bd 3d a7 3f 3c 60 1d 05 3d
       -0.01242159 -0.037179977 0.011697588 0.032498717

fc.2.weight f4 [64, 128]
000000 3b a5 f6 3d f8 e9 c2 bc a4 79 19 bd 80 b5 e8 3d
       0.12043234 -0.023793206 -0.03746952 0.113627434
000010 90 ab b7 bc 64 65 3d 3d cf d9 0d bd ba d3 8e bd
       -0.022420675 0.04623927 -0.034631547 -0.069739774
000020 ba 56 f2 3d 6f 0b 75 3c ba ba a5 bd 56 4e 02 3e
       0.11832948 0.014956339 -0.08092256 0.12725195
000030 80 2b 78 ba e1 23 ec 3d 1e 60 2c bd 93 98 26 3d
       -0.0009466931 0.11530281 -0.042083852 0.04067285
000040 6d 22 90 3d cc 98 c1 3c 31 34 cc 3d 95 28 f2 3d
       0.07037816 0.02363243 0.09970892 0.11824147
000050 f1 34 8f ba eb f9 a2 bc cd a8 23 3d 92 9f 41 3d
       -0.0010925812 -0.01989456 0.039955903 0.04727132
000060 4b 96 9c bd 21 bf bf 3d 97 62 cd 3d d6 cf af 3d
       -0.076458536 0.09362627 0.1002857 0.085845634
000070 6e bd df 3d bb 3a a6 bc 71 5b 88 bc 84 1b 50 3a
       0.10924803 -0.020291677 -0.016645165 0.00079386705
000080 16 d3 86 3d 20 fc 34 3d 50 8a 05 3d df 9d 9c 3d
       0.0658323 0.044185758 0.03260261 0.07647299
000090 d4 3a b5 bc 55 c1 8f 3c 42 77 b6 bc 24 c5 a7 3d
       -0.022122778 0.017548243 -0.022273663 0.081918985
0000a0 ae 44 10 3e 2f 2c 84 3d 1b 57 8c 3d 5a e8 b7 3d
       0.14088699 0.0645374 0.068525515 0.089798644
0000b0 d7 96 7d 3d ed 9a c2 3d 5b 35 89 3d d2 c9 68 3b
       0.06191143 0.09502206 0.0669963 0.0035520685
0000c0 21 cb b7 3c c0 8c 5b bd dc 01 5a bd 98 1e f8 3c
       0.022435727 -0.053601027 -0.05322443 0.030288026
0000d0 5a 66 ee 39 3b ed b9 3c 04 8e 57 3c cc 77 a0 bc
       0.00045471155 0.022696128 0.013156418 -0.019588374
0000e0 5a cc 08 3d e5 22 e4 3b 81 7d 44 3d 73 1e ab 3d
       0.03339801 0.0069621676 0.047971252 0.08355417
0000f0 17 ef aa 3d b8 17 34 3d b5 15 ee 3d 2b 5c 7f 3d
       0.08346384 0.043967932 0.11625234 0.062343758
000100 66 a5 23 3c 97 c3 9b 3d f9 cc 10 3e 0f 71 9d bc
       0.0099881645 0.07605665 0.14140691 -0.01921895
000110 89 15 8a 3c 6a d8 eb bc cc 92 f1 3d 7d 26 21 bd
       0.016855972 -0.028789718 0.117955774 -0.039343346
000120 90 8b b8 3d 14 14 04 3d bc dc 1a 3d 43 3b 0d bc
       0.090109944 0.03224571 0.037808165 -0.008620086
000130 3f ee 65 3d 23 c0 1b 3e 83 49 01 3e 18 a8 3a 3d
       0.056135412 0.15210013 0.12625699 0.045570463
000140 41 9b 09 3c 01 14 79 3d 0b 22 4b 3d b8 c4 77 3e
       0.008398832 0.060810093 0.049593013 0.24196136
000150 df be 41 3a 0f c6 b0 3d f1 b8 a2 3d 35 87 1e bd
       0.0007390808 0.08631527 0.07945431 -0.038703162
000160 68 63 89 3d 1d 9e ff 3d b3 8a 78 bd 59 82 eb 3d
       0.06708413 0.124813296 -0.06067915 0.11499471
000170 ac b1 10 bd 04 71 67 3d a9 68 bd 3c bc ab db 3c
       -0.03532569 0.056504264 0.023121195 0.026815288
000180 b5 cb 16 3d 1a 51 14 bc 5c c9 9a 3d e5 1a 09 3e
       0.036815364 -0.009052539 0.075579375 0.13389166
000190 19 a9 31 3d a5 03 0a 3d dd 8c 2c bd a5 06 98 3d
       0.043374155 0.033694882 -0.042126525 0.07423142
0001a0 b7 c7 bb bc 61 f8 27 bd b4 9e 02 3c ee 40 b8 bc
       -0.02292238 -0.041008357 0.007972408 -0.022491898
0001b0 05 5a 21 bd b0 4b 9a bd 8a 91 36 bd 7a 5f 7f 3e
       -0.03939249 -0.075339675 -0.04457239 0.24938765
0001c0 00 9b c1 3d de 46 f8 3d 5e c4 1a bd d9 74 e2 3b
       0.09453392 0.12122892 -0.037784927 0.006910902
0001d0 57 52 a2 3d 4c 3f 13 3e 27 bc 9a bc f1 e0 01 bd
       0.07925861 0.14379615 -0.018888546 -0.03170866
0001e0 9d 64 ad 3d fe 24 ae 3d 6a 7d da 3d 8f 30 8a 3c
       0.08466456 0.085031494 0.10668452 0.016868858
0001f0 66 70 24 bd 00 3c 20 3d 34 9d 4d bd fa fc 7d 3d
       -0.040146254 0.03911972 -0.05019875 0.062008835
000200 bf cd 2e 3e 7c 25 d0 3b 89 84 ec bc 95 15 b6 3d
       0.17070673 0.0063521247 -0.028871791 0.08890835
000210 40 b3 c1 3d a6 74 0d 3d 4d 43 ff 3c d8 60 a6 3d
       0.09458017 0.034535073 0.031160021 0.0812394
000220 05 25 da 3c f9 a7 a7 3a bb 11 a7 3d ae 23 f3 39
       0.02662898 0.0012791149 0.08157679 0.00046375155
000230 cf 57 21 3c e8 0a 01 3e 84 13 2e 3d a7 97 3d bd
       0.009847595 0.12601817 0.04249908 -0.046287205
000240 8f 40 99 3d 3c 77 88 3d b0 21 7d ba ec 7d 0e 3e
       0.07483017 0.06663367 -0.0009656204 0.13915223
000250 4a 9e 5e 3b 5a a7 70 3c 79 bd 65 3d 30 54 ba 3d
       0.003396886 0.014688337 0.0560889 0.09098089
000260 43 dc cf bc 8e ee 0b 3e b4 ef cc bc 1d 1d e0 bc
       -0.025373584 0.1366522 -0.025016643 -0.027357632
000270 ef 39 74 3d 86 08 86 3d 05 10 62 bd a8 c2 4b bd
       0.059625562 0.065445945 -0.05519106 -0.049746186
000280 0f fa 8d bd 24 97 43 3e 29 fd 44 bd 2b db f8 3b
       -0.069324605 0.19100624 -0.048092995 0.0075944862
000290 fb 48 61 3c 96 e2 d6 3c 4a 32 98 bd 20 62 e0 3d
       0.01375031 0.026231091 -0.07431467 0.10956216
0002a0 aa 3a 2c 3d 2c c2 fc 3c e1 41 aa 3d 19 4c aa 3d
       0.042048134 0.030854307 0.08313347 0.08315296
0002b0 8f fe 81 bd ad 3b 83 3d 06 59 de 3d 0a 75 8a bc
       -0.06347381 0.064078666 0.108568236 -0.016901512
0002c0 e2 7d 61 3d 2a 2a 8d bd 3b 13 29 3d 29 a0 a4 3d
       0.05505169 -0.06892808 0.041278105 0.080383606
0002d0 65 53 38 3a eb 5a 0b 3e 8c ef 4b 3c c9 f4 04 3e
       0.000703147 0.13608901 0.012447249 0.12984003
0002e0 20 18 fe 3d ef 84 a5 bd c1 15 e1 3c 24 11 9f bc
       0.12406945 -0.08081996 0.027476193 -0.019417353
0002f0 72 79 9d 3c df fa 29 3e 73 6a 24 3e 1a 94 00 3e
       0.019222949 0.16599606 0.16056232 0.12556496
000300 41 f2 bc 3c b7 8c ac bc 0d c9 e6 bc fe 3e 31 3d
       0.023064734 -0.021063192 -0.02817204 0.043272965
000310 4a 8a 26 3c 4d 8b 8b 3d 25 ef ca 3d e4 0f 68 3d
       0.010164807 0.06813679 0.099088944 0.05665578
000320 73 5d 04 bc df 93 dd bb 9a 6b f0 3d 45 58 e3 3c
       -0.008078921 -0.0067620124 0.11739273 0.027752051
000330 f4 84 c3 3d 44 24 33 3e ba 2b 4e bc ab 5f e5 bb
       0.09546843 0.17494303 -0.012583667 -0.00699993
000340 fd 2a a7 3d be 02 00 3d b5 08 b3 3d 40 89 6c 3e
       0.08162496 0.031252615 0.08741895 0.23099232
000350 5c c2 92 3d ac ec 97 3c 96 01 4d 3d 5a f5 8a 3b
       0.07165977 0.018545471 0.05005034 0.004240674
000360 c4 ec 40 3d 24 da 94 3d 92 9e 0f bd 13 d2 ef bc
       0.047100797 0.072681695 -0.035063334 -0.029274976
000370 e7 40 70 bd 03 a3 87 bd c5 b1 87 bd fc f2 c7 3d
       -0.058655646 -0.06622889 -0.06625704 0.097631425
000380 84 4e cf bc c7 18 a5 bd 5b bf 9a 3a f2 ca 3c 3d
       -0.025305994 -0.080613665 0.0011806296 0.04609198
000390 c9 54 e6 3c 33 db 77 3d b8 05 24 bd 3f 15 1b 3d
       0.0281166 0.06051178 -0.040044516 0.03786206
0003a0 19 0f 8a bd 4b 22 fb 3d 2b a9 46 bd f5 33 87 3d
       -0.06741161 0.122624 -0.048501175 0.06601707
0003b0 a7 f7 de 3d 47 6c 30 3d b6 c1 d4 bb 37 11 3b 3e
       0.1088708 0.04307201 -0.0064928187 0.18268286
0003c0 b7 bd 7d bd 3e ad 15 bb 02 d4 04 3e 80 c9 19 bc
       -0.061948504 -0.0022838856 0.129715 -0.00938642
0003d0 ab 46 8e bd 85 b5 c1 3b 44 be 17 3c 26 40 c0 3d
       -0.069470726 0.0059115314 0.009261671 0.09387235
0003e0 8f b6 e4 3d 53 96 f3 3d 4b 14 2a 3c 81 10 9f 3d
       0.11167633 0.118939064 0.010380815 0.0776682
0003f0 21 06 b2 3d fd 79 8c bd 66 04 70 bd 9d e7 09 3e
       0.08692575 -0.06859205 -0.058597945 0.1346726

fc.2.bias f4 [64]
000000 3b 9e 5c 3d f8 0c 99 bc 6e 94 f1 bd b0 78 12 3d
       0.053861838 -0.018682942 -0.11795889 0.035759628
000010 6b a4 97 bd 78 16 8d 3e 3c ec 56 3d 45 26 9c 3b
       -0.07404407 0.27556205 0.052471384 0.0047653043
000020 21 7e 81 bd ae a2 4d 3e ce 60 62 3d 5d 35 8e bc
       -0.06322885 0.20081589 0.0552681 -0.01735943
000030 a3 5e 2e 3e 3b 25 3d be e4 55 25 3d a5 4e 37 3d
       0.17028289 -0.18471234 0.040365115 0.044752736
000040 6c c6 02 be 35 9a 87 3e 56 c3 28 3d cc 34 62 3e
       -0.12771004 0.26484838 0.041201912 0.22090453
000050 c8 b8 4d bd 30 d4 fa bc e8 70 92 bd 3d 10 01 3e
       -0.05022505 -0.030618757 -0.071504414 0.1260385
000060 36 f9 60 3e 11 6e 1f 3c 80 92 67 bd ae ef 0b 3d
       0.21970066 0.009730832 -0.056536198 0.034164123
000070 28 91 5b bd 55 ef 52 3d 23 f1 37 3e f6 a9 3d 3e
       -0.05360523 0.051497776 0.1796308 0.18521866
000080 04 46 3d 3d 9c f4 7a be e1 ec 31 be 92 79 e5 bb
       0.04620935 -0.24507374 -0.17375518 -0.0070030177
000090 1b a0 94 3e a2 3d 31 3d b5 96 33 bd 55 12 28 3d
       0.290284 0.04327167 -0.043844897 0.041033108
0000a0 1c f0 15 3d fd a8 8f 3c 0b d1 a3 bd ab 6c 13 be
       0.03660594 0.017536635 -0.07998856 -0.14396922
0000b0 cb e6 8e 3d 10 79 5e bc de 5d c0 bc 21 9b 5a 3e
       0.06977614 -0.013578668 -0.02348226 0.2134824
0000c0 83 28 c4 bc 6a 20 d8 bd 3d 81 0c bc a2 40 63 bd
       -0.023945099 -0.105530575 -0.008575735 -0.05548156
0000d0 05 c6 07 3e 90 52 f5 bc 98 fe 33 3e a5 6e 23 bd
       0.13259132 -0.029946595 0.17577589 -0.03990044
0000e0 0f b9 80 3d f8 49 1c bd 15 57 ae 3c c4 ed d9 3a
       0.06285297 -0.03815648 0.021281758 0.0016626646
0000f0 c5 01 54 3e 1e 07 09 bd 93 26 b4 3d da 32 bd bc
       0.207038 -0.033454053 0.0879642 -0.023095537

fc.4.weight f4 [1, 64]
000000 14 c5 24 be 93 95 8b bd 4c cb ab 3c a9 fe b7 3d
       -0.16090804 -0.068156384 0.020970963 0.089841194
000010 6f a7 1b bd 3b e3 f0 3e 1b 39 c8 bd 06 b6 2b 3e
       -0.038001474 0.47048363 -0.09776517 0.16768655
000020 6d 65 77 3d 35 1d b6 3e d0 59 62 3c 21 1f 20 be
       0.06039946 0.35569158 0.013815358 -0.15636875
000030 93 87 7c 3e d1 f3 ae be 6b d7 82 3d 19 5c 14 be
       0.24661092 -0.34170392 0.06388744 -0.14488257
000040 9b f8 84 3d 01 4c f9 3e df 6d b7 3d 98 0b ba 3e
       0.0649273 0.486908 0.08956503 0.3633697
000050 f5 f5 84 bd 4e ce 16 be 85 61 e3 bb 41 cd 3f 3e
       -0.06492225 -0.14727136 -0.0069391155 0.18730642
000060 d5 d3 ae 3e dc 4e 04 3d 8e 80 d8 3d e8 dc 6a 3e
       0.3414599 0.03230177 0.10571395 0.22935832
000070 95 01 e3 3d 82 73 0e be 06 3d cf 3e 90 50 b8 3e
       0.11084286 -0.1391125 0.40476245 0.35998964
000080 cc eb ac bd ec 42 b6 be 59 65 b5 bd ec c3 d3 3d
       -0.08443412 -0.35597932 -0.08857221 0.103401035
000090 44 84 78 3e cd 32 4c bd b5 f4 3d 3a 61 4f 31 be
       0.24269205 -0.049853135 0.0007246242 -0.17315437
0000a0 71 fc 21 be 45 e2 2e bc 51 09 99 3c 91 3a c3 bd
       -0.15818955 -0.010674064 0.0186812 -0.09532655
0000b0 ae b6 14 be 07 de f8 bd e6 2a 2e be 86 bc e1 3e
       -0.14522812 -0.12151723 -0.17008552 0.44089144
0000c0 39 78 fe bd ec 60 95 bd d1 fc d0 bd 9b a9 bd 3d
       -0.124252744 -0.07293877 -0.10204471 0.09260865
0000d0 39 6e 8f 3e 78 e5 dc bd c7 39 d4 3e 18 c5 57 bd
       0.2801378 -0.10785955 0.4145033 -0.052678198
0000e0 f6 b3 ac 3d 58 f1 98 3c da ff a8 be ea 4d 00 be
       0.08432762 0.01866977 -0.330077 -0.12529722
0000f0 72 54 b7 3e 62 df 00 3e d1 cc c3 3d 95 9f 1d be
       0.35806614 0.12585214 0.0956055 -0.15392907
